…
</pre></td></tr></tbody></table></code></pre></div></div>

<h2 id="model-">Model :</h2>
<p>Our model will look like something like</p>

<div class="language-plaintext highlighter-rouge"><div class="highlight"><pre class="highlight"><code><table class="rouge-table"><tbody><tr><td class="rouge-gutter gl"><pre class="lineno">1
2
3
4
5
6
7
8
9
10
11
12
13
14
15
16
17
18
19
20
21
22
23
24
25
26
27
28
29
30
31
32
33
34
35
36
37
38
39
40
41
42
43
44
45
46
47
48
49
50
51
52
53
54
55
56
57
58
59
60
61
62
63
64
65
66
67
68
69
70
71
72
73
74
75
76
77
78
79
80
81
82
83
84
85
86
87
88
89
90
91
92
</pre></td><td class="rouge-code"><pre>Xception(
  (conv1_3x3): Conv2d(3, 32, kernel_size=(3, 3), stride=(2, 2), padding=(1, 1))
  (bn1): BatchNorm2d(32, eps=1e-05, momentum=0.1, affine=True, track_running_stats=True)
  (relu): ReLU()
  (conv2_3x3): Conv2d(32, 64, kernel_size=(3, 3), stride=(1, 1), padding=(1, 1))
  (bn2): BatchNorm2d(64, eps=1e-05, momentum=0.1, affine=True, track_running_stats=True)
  (block_3x3): DepthWiseSeparable(
    (block): Sequential(
      (0): ReLU()
      (1): Conv2d(64, 64, kernel_size=(3, 3), stride=(1, 1), padding=(1, 1), groups=64)
      (2): Conv2d(64, 128, kernel_size=(1, 1), stride=(1, 1))
      (3): BatchNorm2d(128, eps=1e-05, momentum=0.1, affine=True, track_running_stats=True)
      (4): ReLU()
      (5): Conv2d(128, 128, kernel_size=(3, 3), stride=(1, 1), padding=(1, 1), groups=128)
      (6): Conv2d(128, 128, kernel_size=(1, 1), stride=(1, 1))
      (7): BatchNorm2d(128, eps=1e-05, momentum=0.1, affine=True, track_running_stats=True)
      (8): MaxPool2d(kernel_size=3, stride=2, padding=1, dilation=1, ceil_mode=False)
    )
  )
  (downsample_1): Conv2d(64, 128, kernel_size=(1, 1), stride=(2, 2))
  (block_3x3_256): DepthWiseSeparable(
    (block): Sequential(
      (0): ReLU()
      (1): Conv2d(128, 128, kernel_size=(3, 3), stride=(1, 1), padding=(1, 1), groups=128)
      (2): Conv2d(128, 256, kernel_size=(1, 1), stride=(1, 1))
      (3): BatchNorm2d(256, eps=1e-05, momentum=0.1, affine=True, track_running_stats=True)
      (4): ReLU()
      (5): Conv2d(256, 256, kernel_size=(3, 3), stride=(1, 1), padding=(1, 1), groups=256)
      (6): Conv2d(256, 256, kernel_size=(1, 1), stride=(1, 1))
      (7): BatchNorm2d(256, eps=1e-05, momentum=0.1, affine=True, track_running_stats=True)
      (8): MaxPool2d(kernel_size=3, stride=2, padding=1, dilation=1, ceil_mode=False)
    )
  )
  (downsample_2): Conv2d(128, 256, kernel_size=(1, 1), stride=(2, 2))
  (block_3x3_728): DepthWiseSeparable(
    (block): Sequential(
      (0): ReLU()
      (1): Conv2d(256, 256, kernel_size=(3, 3), stride=(1, 1), padding=(1, 1), groups=256)
      (2): Conv2d(256, 728, kernel_size=(1, 1), stride=(1, 1))
      (3): BatchNorm2d(728, eps=1e-05, momentum=0.1, affine=True, track_running_stats=True)
      (4): ReLU()
      (5): Conv2d(728, 728, kernel_size=(3, 3), stride=(1, 1), padding=(1, 1), groups=728)
      (6): Conv2d(728, 728, kernel_size=(1, 1), stride=(1, 1))
      (7): BatchNorm2d(728, eps=1e-05, momentum=0.1, affine=True, track_running_stats=True)
      (8): MaxPool2d(kernel_size=3, stride=2, padding=1, dilation=1, ceil_mode=False)
    )
  )
  (downsample_3): Conv2d(256, 728, kernel_size=(1, 1), stride=(2, 2))
  (block_3x3_middle): DepthWiseSeparable(
    (block): Sequential(
      (0): ReLU()
      (1): Conv2d(728, 728, kernel_size=(3, 3), stride=(1, 1), padding=(1, 1), groups=728)
      (2): Conv2d(728, 728, kernel_size=(1, 1), stride=(1, 1))
      (3): BatchNorm2d(728, eps=1e-05, momentum=0.1, affine=True, track_running_stats=True)
      (4): ReLU()
      (5): Conv2d(728, 728, kernel_size=(3, 3), stride=(1, 1), padding=(1, 1), groups=728)
      (6): Conv2d(728, 728, kernel_size=(1, 1), stride=(1, 1))
      (7): BatchNorm2d(728, eps=1e-05, momentum=0.1, affine=True, track_running_stats=True)
      (8): ReLU()
      (9): Conv2d(728, 728, kernel_size=(3, 3), stride=(1, 1), padding=(1, 1), groups=728)
      (10): Conv2d(728, 728, kernel_size=(1, 1), stride=(1, 1))
    )
  )
  (block_3x3_exit): DepthWiseSeparable(
    (block): Sequential(
      (0): ReLU()
      (1): Conv2d(728, 728, kernel_size=(3, 3), stride=(1, 1), padding=(1, 1), groups=728)
      (2): Conv2d(728, 1024, kernel_size=(1, 1), stride=(1, 1))
      (3): BatchNorm2d(1024, eps=1e-05, momentum=0.1, affine=True, track_running_stats=True)
      (4): ReLU()
      (5): Conv2d(1024, 1024, kernel_size=(3, 3), stride=(1, 1), padding=(1, 1), groups=1024)
      (6): Conv2d(1024, 1024, kernel_size=(1, 1), stride=(1, 1))
      (7): BatchNorm2d(1024, eps=1e-05, momentum=0.1, affine=True, track_running_stats=True)
      (8): MaxPool2d(kernel_size=3, stride=2, padding=1, dilation=1, ceil_mode=False)
    )
  )
  (downsample_4): Conv2d(728, 1024, kernel_size=(1, 1), stride=(2, 2))
  (block_3x3_exit_2): DepthWiseSeparable(
    (block): Sequential(
      (0): Conv2d(1024, 1024, kernel_size=(3, 3), stride=(1, 1), padding=(1, 1), groups=1024)
      (1): Conv2d(1024, 1536, kernel_size=(1, 1), stride=(1, 1))
      (2): BatchNorm2d(1536, eps=1e-05, momentum=0.1, affine=True, track_running_stats=True)
      (3): ReLU()
      (4): Conv2d(1536, 1536, kernel_size=(3, 3), stride=(1, 1), padding=(1, 1), groups=1536)
      (5): Conv2d(1536, 2048, kernel_size=(1, 1), stride=(1, 1))
      (6): BatchNorm2d(2048, eps=1e-05, momentum=0.1, affine=True, track_running_stats=True)
      (7): ReLU()
    )
  )
  (avgpool): AdaptiveAvgPool2d(output_size=(1, 1))
  (fc): Linear(in_features=2048, out_features=1000, bias=True)
)
</pre></td></tr></tbody></table></code></pre></div></div>

:ET